…
    save_path: outputs/
    num_worker: 4
network:
  feats_dim: 128
  dino_model_type: dinov2_vitl14
  dino_input_size:
  - 518
  - 518
  unet_input_size:
  - 512
  - 512
  unet_input_dim: 3
  unet_hidden_dim_list:
  - 64
  - 128
  - 256
  - 512
  segment_pool_size:
  - 512
  - 512
val:
  save_images: true
  save_json: true
  save_path: outputs/
  batch_size: 1
losses:
  loss_scale_ce: 0.5
  loss_scale_mae: 0.2

2026-04-03 13:26:34,364 - INFO - Using device: cuda
2026-04-03 13:26:42,140 - INFO - 
===== Model Architecture =====
DACoNModel(
  (dino): DinoVisionTransformer(
    (patch_embed): PatchEmbed(
      (proj): Conv2d(3, 1024, kernel_size=(14, 14), stride=(14, 14))
      (norm): Identity()
    )
    (blocks): ModuleList(
      (0-23): 24 x NestedTensorBlock(
        (norm1): LayerNorm((1024,), eps=1e-06, elementwise_affine=True)
        (attn): MemEffAttention(
          (qkv): Linear(in_features=1024, out_features=3072, bias=True)
          (proj): Linear(in_features=1024, out_features=1024, bias=True)
          (proj_drop): Dropout(p=0.0, inplace=False)
        )
        (ls1): LayerScale()
        (drop_path1): Identity()
        (norm2): LayerNorm((1024,), eps=1e-06, elementwise_affine=True)
        (mlp): Mlp(
          (fc1): Linear(in_features=1024, out_features=4096, bias=True)
          (act): GELU(approximate='none')
          (fc2): Linear(in_features=4096, out_features=1024, bias=True)
          (drop): Dropout(p=0.0, inplace=False)
        )
        (ls2): LayerScale()
        (drop_path2): Identity()
      )
    )
    (norm): LayerNorm((1024,), eps=1e-06, elementwise_affine=True)
    (head): Identity()
  )
  (unet): UNet(
    (pool): MaxPool2d(kernel_size=2, stride=2, padding=0, dilation=1, ceil_mode=False)
    (encoder_blocks): ModuleList(
      (0): ConvBlock(
        (conv): Sequential(
          (0): Conv2d(3, 64, kernel_size=(3, 3), stride=(1, 1), padding=(1, 1))
          (1): InstanceNorm2d(64, eps=1e-05, momentum=0.1, affine=False, track_running_stats=False)
          (2): ReLU(inplace=True)
          (3): Conv2d(64, 64, kernel_size=(3, 3), stride=(1, 1), padding=(1, 1))
          (4): InstanceNorm2d(64, eps=1e-05, momentum=0.1, affine=False, track_running_stats=False)
          (5): ReLU(inplace=True)
        )
      )
      (1): ConvBlock(
        (conv): Sequential(
          (0): Conv2d(64, 128, kernel_size=(3, 3), stride=(1, 1), padding=(1, 1))
          (1): InstanceNorm2d(128, eps=1e-05, momentum=0.1, affine=False, track_running_stats=False)
          (2): ReLU(inplace=True)
          (3): Conv2d(128, 128, kernel_size=(3, 3), stride=(1, 1), padding=(1, 1))
          (4): InstanceNorm2d(128, eps=1e-05, momentum=0.1, affine=False, track_running_stats=False)
          (5): ReLU(inplace=True)
        )
      )
      (2): ConvBlock(
        (conv): Sequential(
          (0): Conv2d(128, 256, kernel_size=(3, 3), stride=(1, 1), padding=(1, 1))
          (1): InstanceNorm2d(256, eps=1e-05, momentum=0.1, affine=False, track_running_stats=False)
          (2): ReLU(inplace=True)
          (3): Conv2d(256, 256, kernel_size=(3, 3), stride=(1, 1), padding=(1, 1))
          (4): InstanceNorm2d(256, eps=1e-05, momentum=0.1, affine=False, track_running_stats=False)
          (5): ReLU(inplace=True)
        )
      )
      (3): ConvBlock(
        (conv): Sequential(
          (0): Conv2d(256, 512, kernel_size=(3, 3), stride=(1, 1), padding=(1, 1))
          (1): InstanceNorm2d(512, eps=1e-05, momentum=0.1, affine=False, track_running_stats=False)
          (2): ReLU(inplace=True)
          (3): Conv2d(512, 512, kernel_size=(3, 3), stride=(1, 1), padding=(1, 1))
          (4): InstanceNorm2d(512, eps=1e-05, momentum=0.1, affine=False, track_running_stats=False)
          (5): ReLU(inplace=True)
        )
      )
    )
    (bottleneck): ConvBlock(
      (conv): Sequential(
        (0): Conv2d(512, 1024, kernel_size=(3, 3), stride=(1, 1), padding=(1, 1))
        (1): InstanceNorm2d(1024, eps=1e-05, momentum=0.1, affine=False, track_running_stats=False)
        (2): ReLU(inplace=True)
        (3): Conv2d(1024, 1024, kernel_size=(3, 3), stride=(1, 1), padding=(1, 1))
        (4): InstanceNorm2d(1024, eps=1e-05, momentum=0.1, affine=False, track_running_stats=False)
        (5): ReLU(inplace=True)
      )
    )
    (decoder_up_convs): ModuleList(
      (0): UpConv(
        (up): Sequential(
          (0): Upsample(scale_factor=2.0, mode='bilinear')
          (1): Conv2d(1024, 512, kernel_size=(3, 3), stride=(1, 1), padding=(1, 1))
          (2): InstanceNorm2d(512, eps=1e-05, momentum=0.1, affine=False, track_running_stats=False)
          (3): ReLU(inplace=True)
        )
      )
      (1): UpConv(
        (up): Sequential(
          (0): Upsample(scale_factor=2.0, mode='bilinear')
          (1): Conv2d(512, 256, kernel_size=(3, 3), stride=(1, 1), padding=(1, 1))
          (2): InstanceNorm2d(256, eps=1e-05, momentum=0.1, affine=False, track_running_stats=False)
          (3): ReLU(inplace=True)
        )
      )
      (2): UpConv(
        (up): Sequential(
          (0): Upsample(scale_factor=2.0, mode='bilinear')
          (1): Conv2d(256, 128, kernel_size=(3, 3), stride=(1, 1), padding=(1, 1))
          (2): InstanceNorm2d(128, eps=1e-05, momentum=0.1, affine=False, track_running_stats=False)
          (3): ReLU(inplace=True)
        )
      )
      (3): UpConv(
        (up): Sequential(
          (0): Upsample(scale_factor=2.0, mode='bilinear')
          (1): Conv2d(128, 64, kernel_size=(3, 3), stride=(1, 1), padding=(1, 1))
          (2): InstanceNorm2d(64, eps=1e-05, momentum=0.1, affine=False, track_running_stats=False)
          (3): ReLU(inplace=True)
        )
      )
    )
    (decoder_conv_blocks): ModuleList(
      (0): ConvBlock(
        (conv): Sequential(
          (0): Conv2d(1024, 512, kernel_size=(3, 3), stride=(1, 1), padding=(1, 1))
          (1): InstanceNorm2d(512, eps=1e-05, momentum=0.1, affine=False, track_running_stats=False)
          (2): ReLU(inplace=True)
          (3): Conv2d(512, 512, kernel_size=(3, 3), stride=(1, 1), padding=(1, 1))
          (4): InstanceNorm2d(512, eps=1e-05, momentum=0.1, affine=False, track_running_stats=False)
          (5): ReLU(inplace=True)
        )
      )
      (1): ConvBlock(
        (conv): Sequential(
          (0): Conv2d(512, 256, kernel_size=(3, 3), stride=(1, 1), padding=(1, 1))
          (1): InstanceNorm2d(256, eps=1e-05, momentum=0.1, affine=False, track_running_stats=False)
          (2): ReLU(inplace=True)
          (3): Conv2d(256, 256, kernel_size=(3, 3), stride=(1, 1), padding=(1, 1))
          (4): InstanceNorm2d(256, eps=1e-05, momentum=0.1, affine=False, track_running_stats=False)
          (5): ReLU(inplace=True)
        )
      )
      (2): ConvBlock(
        (conv): Sequential(
          (0): Conv2d(256, 128, kernel_size=(3, 3), stride=(1, 1), padding=(1, 1))
          (1): InstanceNorm2d(128, eps=1e-05, momentum=0.1, affine=False, track_running_stats=False)
          (2): ReLU(inplace=True)
          (3): Conv2d(128, 128, kernel_size=(3, 3), stride=(1, 1), padding=(1, 1))
          (4): InstanceNorm2d(128, eps=1e-05, momentum=0.1, affine=False, track_running_stats=False)
          (5): ReLU(inplace=True)
        )
      )
      (3): ConvBlock(
        (conv): Sequential(
          (0): Conv2d(128, 64, kernel_size=(3, 3), stride=(1, 1), padding=(1, 1))
          (1): InstanceNorm2d(64, eps=1e-05, momentum=0.1, affine=False, track_running_stats=False)
          (2): ReLU(inplace=True)
          (3): Conv2d(64, 64, kernel_size=(3, 3), stride=(1, 1), padding=(1, 1))
          (4): InstanceNorm2d(64, eps=1e-05, momentum=0.1, affine=False, track_running_stats=False)
          (5): ReLU(inplace=True)
        )
      )
    )
    (final_conv): Conv2d(64, 128, kernel_size=(1, 1), stride=(1, 1))
  )
  (dino_mlp): MLP(
    (fc1): Linear(in_features=1024, out_features=512, bias=True)
    (fc2): Linear(in_features=512, out_features=128, bias=True)
    (relu): ReLU()
  )
  (dino_unet_mlp): MLP(
    (fc1): Linear(in_features=256, out_features=512, bias=True)
    (fc2): Linear(in_features=512, out_features=128, bias=True)
    (relu): ReLU()
  )
)
2026-04-03 13:26:42,140 - INFO - Loading checkpoint dacon_v1_0.pth
2026-04-03 13:26:42,447 - INFO - Loss function initialized.
2026-04-03 13:26:42,448 - INFO - --- Start Testing ---
2026-04-03 13:26:42,818 - INFO -   Evaluating on 3000 samples.
2026-04-03 13:41:47,499 - INFO - 
  Evaluation Results for KerFrame Colorization with Ref shot 1:
…
